…
elapsed":3399,"status":"ok","timestamp":1780849029077,"user":{"displayName":"Evgenii Miasnikov","userId":"16558642990374440926"},"user_tz":-120},"id":"3xJjAmJHlOnr","outputId":"bfae18b4-683b-4478-ddb9-7992eec5bc3f"},"outputs":[{"output_type":"stream","name":"stdout","text":["UNet Model Summary:\n","============================================================\n","----------------------------------------------------------------\n","        Layer (type)               Output Shape         Param #\n","================================================================\n","            Conv2d-1         [-1, 32, 128, 128]           8,672\n","       BatchNorm2d-2         [-1, 32, 128, 128]              64\n","              ReLU-3         [-1, 32, 128, 128]               0\n","            Conv2d-4         [-1, 32, 128, 128]           9,248\n","       BatchNorm2d-5         [-1, 32, 128, 128]              64\n","              ReLU-6         [-1, 32, 128, 128]               0\n","         UNetBlock-7         [-1, 32, 128, 128]               0\n","         MaxPool2d-8           [-1, 32, 64, 64]               0\n","            Conv2d-9           [-1, 64, 64, 64]          18,496\n","      BatchNorm2d-10           [-1, 64, 64, 64]             128\n","             ReLU-11           [-1, 64, 64, 64]               0\n","           Conv2d-12           [-1, 64, 64, 64]          36,928\n","      BatchNorm2d-13           [-1, 64, 64, 64]             128\n","             ReLU-14           [-1, 64, 64, 64]               0\n","        UNetBlock-15           [-1, 64, 64, 64]               0\n","        MaxPool2d-16           [-1, 64, 32, 32]               0\n","           Conv2d-17          [-1, 128, 32, 32]          73,856\n","      BatchNorm2d-18          [-1, 128, 32, 32]             256\n","             ReLU-19          [-1, 128, 32, 32]               0\n","           Conv2d-20          [-1, 128, 32, 32]         147,584\n","      BatchNorm2d-21          [-1, 128, 32, 32]             256\n","             ReLU-22          [-1, 128, 32, 32]               0\n","        UNetBlock-23          [-1, 128, 32, 32]               0\n","         Upsample-24          [-1, 128, 64, 64]               0\n","           Conv2d-25           [-1, 64, 64, 64]         110,656\n","      BatchNorm2d-26           [-1, 64, 64, 64]             128\n","             ReLU-27           [-1, 64, 64, 64]               0\n","           Conv2d-28           [-1, 64, 64, 64]          36,928\n","      BatchNorm2d-29           [-1, 64, 64, 64]             128\n","             ReLU-30           [-1, 64, 64, 64]               0\n","        UNetBlock-31           [-1, 64, 64, 64]               0\n","         Upsample-32         [-1, 64, 128, 128]               0\n","           Conv2d-33         [-1, 32, 128, 128]          27,680\n","      BatchNorm2d-34         [-1, 32, 128, 128]              64\n","             ReLU-35         [-1, 32, 128, 128]               0\n","           Conv2d-36         [-1, 32, 128, 128]           9,248\n","      BatchNorm2d-37         [-1, 32, 128, 128]              64\n","             ReLU-38         [-1, 32, 128, 128]               0\n","        UNetBlock-39         [-1, 32, 128, 128]               0\n","           Conv2d-40          [-1, 2, 128, 128]              66\n","================================================================\n","Total params: 480,642\n","Trainable params: 480,642\n","Non-trainable params: 0\n","----------------------------------------------------------------\n","Input size (MB): 1.88\n","Forward/backward pass size (MB): 104.75\n","Params size (MB): 1.83\n","Estimated Total Size (MB): 108.46\n","--------------------------------------
…
